…
        (1): Dropout(p=0.0, inplace=False)
        (2): GraphSizeNorm()
        (3): BatchNorm(64)
        (4): ReLU()
        (5): SAGEConv(64, 64)
        (6): Dropout(p=0.0, inplace=False)
        (7): GraphSizeNorm()
        (8): BatchNorm(64)
        (9): ReLU()
        (10): SAGEConv(64, 64)
        (11): Dropout(p=0.0, inplace=False)
        (12): GraphSizeNorm()
        (13): BatchNorm(64)
        (14): ReLU()
        (15): SAGEConv(64, 64)
        (16): Dropout(p=0.0, inplace=False)
        (17): GraphSizeNorm()
        (18): BatchNorm(64)
        (19): ReLU()
      )
    )
    (layer_norm): LayerNorm((64,), eps=1e-06, elementwise_affine=True)
  )
  (smus): ModuleList(
    (0): Attv2(
      (trans_lin): ModuleList(
        (0): Linear(in_features=128, out_features=64, bias=True)
        (1): Linear(in_features=64, out_features=64, bias=True)
        (2): Linear(in_features=64, out_features=64, bias=True)
        (3): Linear(in_features=64, out_features=64, bias=True)
      )
      (att_lin): Linear(in_features=128, out_features=1, bias=True)
      (dropout): Dropout(p=0.2, inplace=False)
      (layer_norm): LayerNorm((64,), eps=1e-06, elementwise_affine=True)
    )
    (1): Attv2(
      (trans_lin): ModuleList(
        (0): Linear(in_features=128, out_features=64, bias=True)
        (1): Linear(in_features=64, out_features=64, bias=True)
        (2): Linear(in_features=64, out_features=64, bias=True)
        (3): Linear(in_features=64, out_features=64, bias=True)
      )
      (att_lin): Linear(in_features=128, out_features=1, bias=True)
      (dropout): Dropout(p=0.2, inplace=False)
      (layer_norm): LayerNorm((64,), eps=1e-06, elementwise_affine=True)
    )
  )
  (vlr): VLRLayers(
    (k_fc): Linear(in_features=64, out_features=32, bias=True)
    (v_fc): Linear(in_features=64, out_features=32, bias=True)
    (dropout): Dropout(p=0.2, inplace=False)
    (layer_norm): LayerNorm((32,), eps=1e-06, elementwise_affine=True)
  )
  (cnn_net): LeNet1(
    (dropout): Dropout(p=0.0, inplace=False)
    (fc1): Linear(in_features=450, out_features=32, bias=True)
    (fc2): Linear(in_features=32, out_features=2, bias=True)
    (conv1): Conv2d(2, 16, kernel_size=(5, 5), stride=(1, 1))
    (conv2): Conv2d(16, 18, kernel_size=(5, 5), stride=(1, 1))
  )
)

Model saved at epoch 1 ,val_loss is -0.05776526965200901, val_acc is 0.49 
Model saved at epoch 2 ,val_loss is -0.08576227352023125, val_acc is 0.51 
Model saved at epoch 6 ,val_loss is -0.266380213201046, val_acc is 0.7 
Model saved at epoch 8 ,val_loss is -0.6408974379301071, val_acc is 0.82 
Model saved at epoch 9 ,val_loss is -0.6493974924087524, val_acc is 0.85 
…
