Dataset: NCI1,
Model: SAPNet

params={'kf': 10, 'epochs': 300, 'batch_size': 512, 'seed': 8971, 'patience': 50, 'lr': 0.0005, 'weight_decay': 1e-05}

net_params={'gcn_num': 2, 'dropout': 0.1, 'gcn_droupt': 0.0, 'att_droupt': 0.2, 'graph_norm': True, 'sz_c': 2, 'h_dim': 128, 'g_name': 'GraphSAGE', 's_l_nums': 2, 'alpha': 0.8, 'SMUFlag': True, 'beta': 0.8, 'device': 'cuda:0', 'in_dim': 37, 'out_dim': 2}

model=SAPNet(
  (fea_embed): Sequential(
    (0): Linear(in_features=37, out_features=64, bias=True)
    (1): Linear(in_features=64, out_features=64, bias=True)
  )
  (mgl): MultiGCNLayers(
    (gcn_layer): ModuleList(
      (0): ModuleList(
        (0): SAGEConv(64, 64)
        (1): Dropout(p=0.0, inplace=False)
        (2): GraphSizeNorm()
        (3): BatchNorm(64)
        (4): ReLU()
        (5): SAGEConv(64, 64)
        (6): Dropout(p=0.0, inplace=False)
        (7): GraphSizeNorm()
        (8): BatchNorm(64)
        (9): ReLU()
      )
      (1): ModuleList(
        (0): SAGEConv(64, 64)
        (1): Dropout(p=0.0, inplace=False)
        (2): GraphSizeNorm()
        (3): BatchNorm(64)
        (4): ReLU()
        (5): SAGEConv(64, 64)
        (6): Dropout(p=0.0, inplace=False)
        (7): GraphSizeNorm()
        (8): BatchNorm(64)
        (9): ReLU()
      )
    )
    (layer_norm): LayerNorm((64,), eps=1e-06, elementwise_affine=True)
  )
  (smus): ModuleList(
    (0): Attv2(
      (trans_lin): ModuleList(
        (0): Linear(in_features=128, out_features=64, bias=True)
        (1): Linear(in_features=64, out_features=64, bias=True)
      )
      (att_lin): Linear(in_features=128, out_features=1, bias=True)
      (dropout): Dropout(p=0.2, inplace=False)
      (layer_norm): LayerNorm((64,), eps=1e-06, elementwise_affine=True)
    )
    (1): Attv2(
      (trans_lin): ModuleList(
        (0): Linear(in_features=128, out_features=64, bias=True)
        (1): Linear(in_features=64, out_features=64, bias=True)
      )
      (att_lin): Linear(in_features=128, out_features=1, bias=True)
      (dropout): Dropout(p=0.2, inplace=False)
      (layer_norm): LayerNorm((64,), eps=1e-06, elementwise_affine=True)
    )
  )
  (vlr): VLRLayers(
    (k_fc): Linear(in_features=64, out_features=32, bias=True)
    (v_fc): Linear(in_features=64, out_features=32, bias=True)
    (dropout): Dropout(p=0.2, inplace=False)
    (layer_norm): LayerNorm((32,), eps=1e-06, elementwise_affine=True)
  )
  (cnn_net): LeNet1(
    (dropout): Dropout(p=0.1, inplace=False)
    (fc1): Linear(in_features=450, out_features=32, bias=True)
    (fc2): Linear(in_features=32, out_features=2, bias=True)
    (conv1): Conv2d(2, 16, kernel_size=(5, 5), stride=(1, 1))
    (conv2): Conv2d(16, 18, kernel_size=(5, 5), stride=(1, 1))
  )
)

Model saved at epoch 1 ,val_loss is -0.15002645552158356, val_acc is 0.49148418491484186 
Model saved at epoch 2 ,val_loss is -0.18819111585617065, val_acc is 0.5158150851581509 
{'fold': 1, 'epoch': 10, 'train_loss': 0.122, 'val_loss': -0.48, 'train_acc': 0.663, 'val_acc': 0.511, 'mean_acc': nan}
Model saved at epoch 12 ,val_loss is -0.30328115820884705, val_acc is 0.6253041362530414 
…
