…
        (11): Dropout(p=0.0, inplace=False)
        (12): GraphSizeNorm()
        (13): BatchNorm(42)
        (14): ReLU()
      )
      (2): ModuleList(
        (0): SAGEConv(42, 42)
        (1): Dropout(p=0.0, inplace=False)
        (2): GraphSizeNorm()
        (3): BatchNorm(42)
        (4): ReLU()
        (5): SAGEConv(42, 42)
        (6): Dropout(p=0.0, inplace=False)
        (7): GraphSizeNorm()
        (8): BatchNorm(42)
        (9): ReLU()
        (10): SAGEConv(42, 42)
        (11): Dropout(p=0.0, inplace=False)
        (12): GraphSizeNorm()
        (13): BatchNorm(42)
        (14): ReLU()
      )
    )
    (layer_norm): LayerNorm((42,), eps=1e-06, elementwise_affine=True)
  )
  (smus): ModuleList(
    (0): Attv2(
      (trans_lin): ModuleList(
        (0): Linear(in_features=84, out_features=42, bias=True)
        (1): Linear(in_features=42, out_features=42, bias=True)
      )
      (att_lin): Linear(in_features=84, out_features=1, bias=True)
      (dropout): Dropout(p=0.2, inplace=False)
      (layer_norm): LayerNorm((42,), eps=1e-06, elementwise_affine=True)
    )
    (1): Attv2(
      (trans_lin): ModuleList(
        (0): Linear(in_features=84, out_features=42, bias=True)
        (1): Linear(in_features=42, out_features=42, bias=True)
      )
      (att_lin): Linear(in_features=84, out_features=1, bias=True)
      (dropout): Dropout(p=0.2, inplace=False)
      (layer_norm): LayerNorm((42,), eps=1e-06, elementwise_affine=True)
    )
    (2): Attv2(
      (trans_lin): ModuleList(
        (0): Linear(in_features=84, out_features=42, bias=True)
        (1): Linear(in_features=42, out_features=42, bias=True)
      )
      (att_lin): Linear(in_features=84, out_features=1, bias=True)
      (dropout): Dropout(p=0.2, inplace=False)
      (layer_norm): LayerNorm((42,), eps=1e-06, elementwise_affine=True)
    )
  )
  (vlr): VLRLayers(
    (k_fc): Linear(in_features=42, out_features=32, bias=True)
    (v_fc): Linear(in_features=42, out_features=32, bias=True)
    (dropout): Dropout(p=0.2, inplace=False)
    (layer_norm): LayerNorm((32,), eps=1e-06, elementwise_affine=True)
  )
  (cnn_net): LeNet1(
    (dropout): Dropout(p=0.0, inplace=False)
    (fc1): Linear(in_features=450, out_features=32, bias=True)
    (fc2): Linear(in_features=32, out_features=2, bias=True)
    (conv1): Conv2d(3, 16, kernel_size=(5, 5), stride=(1, 1))
    (conv2): Conv2d(16, 18, kernel_size=(5, 5), stride=(1, 1))
  )
)

Model saved at epoch 1 ,val_loss is -0.003841940313577652, val_acc is 0.6068376068376068 
Model saved at epoch 3 ,val_loss is 0.1349412016570568, val_acc is 0.6666666666666666 
Model saved at epoch 8 ,val_loss is -0.04703781008720398, val_acc is 0.9145299145299145 
{'fold': 1, 'epoch': 10, 'train_loss': 0.359, 'val_loss': -0.051, 'train_acc': 0.802, 'val_acc': 0.838, 'mean_acc': nan}
…
