…
        (1): Dropout(p=0.0, inplace=False)
        (2): GraphSizeNorm()
        (3): BatchNorm(42)
        (4): ReLU()
        (5): SAGEConv(42, 42)
        (6): Dropout(p=0.0, inplace=False)
        (7): GraphSizeNorm()
        (8): BatchNorm(42)
        (9): ReLU()
        (10): SAGEConv(42, 42)
        (11): Dropout(p=0.0, inplace=False)
        (12): GraphSizeNorm()
        (13): BatchNorm(42)
        (14): ReLU()
        (15): SAGEConv(42, 42)
        (16): Dropout(p=0.0, inplace=False)
        (17): GraphSizeNorm()
        (18): BatchNorm(42)
        (19): ReLU()
      )
    )
    (layer_norm): LayerNorm((42,), eps=1e-06, elementwise_affine=True)
  )
  (smus): ModuleList(
    (0): Attv2(
      (trans_lin): ModuleList(
        (0): Linear(in_features=84, out_features=42, bias=True)
        (1): Linear(in_features=42, out_features=42, bias=True)
      )
      (att_lin): Linear(in_features=84, out_features=1, bias=True)
      (dropout): Dropout(p=0.2, inplace=False)
      (layer_norm): LayerNorm((42,), eps=1e-06, elementwise_affine=True)
    )
    (1): Attv2(
      (trans_lin): ModuleList(
        (0): Linear(in_features=84, out_features=42, bias=True)
        (1): Linear(in_features=42, out_features=42, bias=True)
      )
      (att_lin): Linear(in_features=84, out_features=1, bias=True)
      (dropout): Dropout(p=0.2, inplace=False)
      (layer_norm): LayerNorm((42,), eps=1e-06, elementwise_affine=True)
    )
    (2): Attv2(
      (trans_lin): ModuleList(
        (0): Linear(in_features=84, out_features=42, bias=True)
        (1): Linear(in_features=42, out_features=42, bias=True)
      )
      (att_lin): Linear(in_features=84, out_features=1, bias=True)
      (dropout): Dropout(p=0.2, inplace=False)
      (layer_norm): LayerNorm((42,), eps=1e-06, elementwise_affine=True)
    )
  )
  (vlr): VLRLayers(
    (k_fc): Linear(in_features=42, out_features=32, bias=True)
    (v_fc): Linear(in_features=42, out_features=32, bias=True)
    (dropout): Dropout(p=0.2, inplace=False)
    (layer_norm): LayerNorm((32,), eps=1e-06, elementwise_affine=True)
  )
  (cnn_net): LeNet1(
    (dropout): Dropout(p=0.4, inplace=False)
    (fc1): Linear(in_features=450, out_features=32, bias=True)
    (fc2): Linear(in_features=32, out_features=2, bias=True)
    (conv1): Conv2d(3, 16, kernel_size=(5, 5), stride=(1, 1))
    (conv2): Conv2d(16, 18, kernel_size=(5, 5), stride=(1, 1))
  )
)

Model saved at epoch 1 ,val_loss is -0.0733579583466053, val_acc is 0.6036036036036037 
Model saved at epoch 5 ,val_loss is -0.02104843221604824, val_acc is 0.7117117117117117 
Model saved at epoch 8 ,val_loss is 0.06930837500840425, val_acc is 0.8108108108108109 
Model saved at epoch 9 ,val_loss is -0.13374774949625134, val_acc is 0.954954954954955 
…
