…
        (1): Dropout(p=0.0, inplace=False)
        (2): GraphSizeNorm()
        (3): BatchNorm(64)
        (4): ReLU()
        (5): SAGEConv(64, 64)
        (6): Dropout(p=0.0, inplace=False)
        (7): GraphSizeNorm()
        (8): BatchNorm(64)
        (9): ReLU()
        (10): SAGEConv(64, 64)
        (11): Dropout(p=0.0, inplace=False)
        (12): GraphSizeNorm()
        (13): BatchNorm(64)
        (14): ReLU()
        (15): SAGEConv(64, 64)
        (16): Dropout(p=0.0, inplace=False)
        (17): GraphSizeNorm()
        (18): BatchNorm(64)
        (19): ReLU()
      )
    )
    (layer_norm): LayerNorm((64,), eps=1e-06, elementwise_affine=True)
  )
  (smus): ModuleList(
    (0): Attv2(
      (trans_lin): ModuleList(
        (0): Linear(in_features=128, out_features=64, bias=True)
        (1): Linear(in_features=64, out_features=64, bias=True)
      )
      (att_lin): Linear(in_features=128, out_features=1, bias=True)
      (dropout): Dropout(p=0.2, inplace=False)
      (layer_norm): LayerNorm((64,), eps=1e-06, elementwise_affine=True)
    )
    (1): Attv2(
      (trans_lin): ModuleList(
        (0): Linear(in_features=128, out_features=64, bias=True)
        (1): Linear(in_features=64, out_features=64, bias=True)
      )
      (att_lin): Linear(in_features=128, out_features=1, bias=True)
      (dropout): Dropout(p=0.2, inplace=False)
      (layer_norm): LayerNorm((64,), eps=1e-06, elementwise_affine=True)
    )
  )
  (vlr): VLRLayers(
    (k_fc): Linear(in_features=64, out_features=32, bias=True)
    (v_fc): Linear(in_features=64, out_features=32, bias=True)
    (dropout): Dropout(p=0.2, inplace=False)
    (layer_norm): LayerNorm((32,), eps=1e-06, elementwise_affine=True)
  )
  (cnn_net): LeNet1(
    (dropout): Dropout(p=0.3, inplace=False)
    (fc1): Linear(in_features=450, out_features=32, bias=True)
    (fc2): Linear(in_features=32, out_features=2, bias=True)
    (conv1): Conv2d(2, 16, kernel_size=(5, 5), stride=(1, 1))
    (conv2): Conv2d(16, 18, kernel_size=(5, 5), stride=(1, 1))
  )
)

Model saved at epoch 1 ,val_loss is -0.06877673417329788, val_acc is 0.5364077669902912 
Model saved at epoch 9 ,val_loss is -0.18115828931331635, val_acc is 0.5606796116504854 
{'fold': 1, 'epoch': 10, 'train_loss': 0.36, 'val_loss': -0.199, 'train_acc': 0.69, 'val_acc': 0.546, 'mean_acc': nan}
Model saved at epoch 11 ,val_loss is -0.2088485211133957, val_acc is 0.6189320388349514 
…
